data.pth (torch, 5015 bytes, 6 tensors)

l1.weight f4 [8, 54]
0.5805186 -0.13472553 -0.37852702 0.1983182 0.31379268 0.8499373 -0.22542156 -0.24635234
-0.2752965 -0.24483088 0.45819694 -0.24331094 -0.6083884 -0.34808978 -0.18229973 -0.069580995
0.26410654 0.7994837 -0.26510885 0.40714923 0.5377446 0.5269997 0.39468634 0.15398599
-0.1019685 0.25559792 -0.46789747 -0.41094473 -0.42191678 -0.274686 0.5854051 -0.2704755
0.27590442 -0.44195607 -0.38137802 -0.103912055 -0.2845224 -0.27983028 -0.2799026 -0.263182
0.60976964 -0.40078995 -0.24356762 -0.1997751 -0.32934415 -0.2740081 0.6211772 0.42306593
0.24268316 -0.41978604 -0.12599625 -0.087712795 -0.16715728 0.3914923 -0.12797186 0.6739869
-0.38048705 0.055828683 0.08592 -0.46585107 -0.30271193 -0.42926732 -0.27570543 -0.49320155
0.30712968 0.43737748 0.06642552 0.4159194 0.42773435 0.31771013 0.28917825 -0.49264896
-0.14277017 0.37168404 0.06455768 0.3345433 0.32925996 0.60010463 0.25879326 0.2065189
-0.30092093 0.65390885 -0.09980373 0.53092414 -0.13152644 0.43366346 0.023086423 -0.30065536
0.5774806 0.40149567 0.040951643 -0.42592758 -0.2488681 -0.1133526 -0.26549953 -0.31760585
0.3724681 0.3139007 0.25048342 0.57806134 0.16979459 0.1879807 0.07001977 -0.2632472
0.4695942 -0.15248273 -0.15404814 0.055490106 -0.13721462 0.274033 -0.5564631 0.4782493
0.24010575 -0.53990704 -0.07228446 -0.39780602 -0.47007817 -0.30317348 0.29312095 -0.23596054
0.31539613 -0.13544333 0.14583427 -0.10038561 0.5149015 -0.4816604 0.49161565 0.59280133
-0.28543666 0.52317274 0.7289521 0.43706813 -0.25095567 0.55858624 0.78232807 0.12184186
0.46454766 0.15513556 -0.37109876 -0.28242546 -0.2969228 -0.45338407 0.063550584 -0.075730436
0.4240109 -0.52107686 -0.14474772 0.004863038 -0.39021653 0.8097705 -0.22406633 0.12674576
-0.35178646 0.05874947 -0.5873294 -0.13393198 0.6626794 0.75915086 -0.2089017 0.48117828
-0.09361581 0.20508656 -0.20823185 -0.50696117 0.30647096 -0.07820795 0.38891155 0.73260057
0.25291497 0.4504121 0.72859466 0.44030488 -0.22558796 -0.13943042 -0.04546411 -0.05571373
-0.0154263405 -0.082770266 -0.02530417 0.9713226 0.091135636 -0.2684835 -0.17198993 -0.29162252
-0.22710054 -0.4716083 -0.017393785 -0.16601321 0.18167509 -0.3134258 0.278617 -0.3312124
0.6451413 -0.14000146 0.03279005 0.5344961 -0.24106 -0.20695677 0.05816604 0.7400621
0.2148317 0.2917291 0.69094515 0.21392708 -0.1389969 -0.26827452 0.040171787 -0.24426724
-0.3965966 -0.09624617 -0.0009949353 0.16877128 -0.27441487 0.25436446 0.15410118 0.4298558
-0.30191672 0.47649178 0.28496146 0.21189849 0.70862484 -0.5513951 0.6004495 0.17836826
0.91623235 0.292446 0.4330302 -0.051952887 0.75766915 0.01571141 0.46008295 -0.20274575
0.2578733 -0.58481014 0.3460685 0.4644605 -0.18414658 0.47388175 0.40409583 -0.07053294
0.010558888 0.018521741 0.5834892 0.4277549 0.39929277 0.30831173 -0.43540215 0.024027057
-0.12425222 0.33699322 0.5020734 -0.10528713 0.1900687 0.85507476 0.42528543 0.456443
00000000: de9c 143f 7df5 09be 4bce c1be ed13 4b3e
00000010: 6fa9 a03e 7e95 593f e9d4 66be ca43 7cbe
00000020: aaf3 8cbe f2b4 7abe ca98 ea3e 8126 79be
00000030: 58bf 1bbf d338 b2be c8ac 3abe 7b80 8ebd
00000040: f938 873e f7aa 4c3f 59bc 87be dd75 d03e
00000050: a1a9 093f 74e9 063f 5414 ca3e 81ae 1d3e
00000060: dcd4 d0bd bbdd 823e 4290 efbe 5967 d2be
00000070: 7a05 d8be a5a3 8cbe 1cdd 153f c47b 8abe
00000080: 5843 8d3e 1148 e2be fb43 c3be d8cf d4bd
00000090: ecac 91be ea45 8fbe 654f 8fbe cbbf 86be
000000a0: dd19 1c3f 5734 cdbe ca69 79be d891 4cbe
000000b0: cc9f a8be ca4a 8cbe 7805 1f3f 199c d83e
000000c0: ef81 783e 32ee d6be 2905 01be c4a2 b3bd
000000d0: 472b 2bbe ae71 c83e 0e0b 03be 688a 2c3f
000000e0: 33cf c2be 9eac 643d d3f6 af3d 0884 eebe
000000f0: 0ffd 9abe edc8 dbbe 4329 8dbe ea84 fcbe
00000100: 1a40 9d3e f1ef df3e 1a0a 883d 63f3 d43e
00000110: ffff da3e e7aa a23e 2c0f 943e 7c3c fcbe
00000120: 5832 12be 5f4d be3e d136 843d 4249 ab3e
00000130: c394 a83e 75a0 193f 8d80 843e b179 533e
00000140: 4f12 9abe 9266 273f e665 ccbd a5ea 073f
00000150: deae 06be 2309 de3e bd1f bd3c 80ef 99be
00000160: c5d5 133f d790 cd3e e9bc 273d 2e13 dabe
00000170: 47d7 7ebe 6825 e8bd 8eef 87be 3c9d a2be
00000180: 24b4 be3e 98b7 a03e 5d3f 803e d4fb 133f
00000190: a2de 2d3e 037e 403e 8666 8f3d 56c8 86be
000001a0: a76e f03e 6f24 1cbe ccbe 1dbe 9849 633d
000001b0: fd81 0cbe 0e4e 8c3e 5e74 0ebf 18dd f43e
000001c0: 48de 753e 5937 0abf e009 94bd 3bad cbbe
000001d0: 16ae f0be 8e39 9bbe f313 963e a49f 71be
000001e0: 9a7b a13e a8b1 0abe 9455 153e f896 cdbd
000001f0: 96d0 033f 319c f6be 0cb5 fb3e d4c1 173f
00000200: c124 92be a6ee 053f 9b9c 3a3f 65c7 df3e
00000210: 437d 80be 82ff 0e3f a746 483f 3a88 f93d
00000220: 31d9 ed3e dbdb 1e3e a800 bebe 129a 90be
00000230: 4406 98be f521 e8be cf26 823d 8f18 9bbd
00000240: f517 d93e 4b65 05bf bf38 14be 1f5a 9f3b
00000250: 76ca c7be 1f4d 4f3f a571 65be a4c9 013e
00000260: 5b1d b4be 49a3 703d 385b 16bf 7725 09be
00000270: 5ba5 293f b657 423f 54ea 55be 005d f63e
00000280: a5b9 bfbd 3602 523e bb3a 55be 35c8 01bf
00000290: c3e9 9c3e 7d2b a0bd 6a1f c73e b68b 3b3f
000002a0: 127e 813e 6a9c e63e 2e85 3a3f a46f e13e
000002b0: 8800 67be d9c6 0ebe 9338 3abd 1534 64bd
000002c0: c3be 7cbc 7583 a9bd b14a cfbc 99a8 783f
000002d0: 52a5 ba3d ab76 89be 211e 30be 8c4f 95be
000002e0: 0b8d 68be a576 f1be 697d 8ebc 5eff 29be
000002f0: 0909 3a3e 5979 a0be e3a6 8e3e ac94 a9be
00000300: fb27 253f 8b5c 0fbe dc4e 063d bdd4 083f
00000310: 6fd8 76be 7aec 53be 833f 6e3d b674 3d3f
00000320: d7fc 5b3e 845d 953e c8e1 303f b30f 5b3e
00000330: 3455 0ebe 475b 89be 2c8b 243d 3121 7abe
00000340: b60e cbbe b61c c5bd 7d68 82ba 61d2 2c3e
00000350: 1b80 8cbe 0f3c 823e b3cc 1d3e 0f16 dc3e
00000360: d494 9abe bbf6 f33e 78e6 913e ebfb 583e
00000370: 7068 353f 3b28 0dbf 0fb7 193f 2ba6 363e
00000380: 348e 6a3f 7bbb 953e 22b6 dd3e 8dcc 54bd
00000390: 9bf6 413f 37b5 803c fe8f eb3e 959c 4fbe
000003a0: f807 843e 1eb6 15bf e42f b13e c4cd ed3e
000003b0: ec90 3cbe a1a0 f23e a6e5 ce3e 9373 90bd
000003c0: 30ff 2c3c e8ba 973c 8c5f 153f b102 db3e
000003d0: 1a70 cc3e 09db 9d3e 08ed debe 64d4 c43c
000003e0: f377 febd 608a ac3e e287 003f c7a0 d7bd
000003f0: 5fa1 423e 2ee6 5a3f 03bf d93e e6b2 e93e

l1.bias f4 [8]
1.0374548 0.56010014 0.55658937 0.7665213 0.5849139 0.40745324 0.46923718 0.8339397
00000000: 52cb 843f b962 0f3f a47c 0e3f bd3a 443f
00000010: ebbc 153f b69d d03e db3f f03e 127d 553f

l2.weight f4 [8, 8]
-0.14775416 -0.32563227 -0.23739149 -0.19040379 0.13822185 0.059751566 -0.13029465 0.08006762
-0.13784969 -0.3956151 -0.66511023 -0.28610423 0.14862119 -0.6054109 1.4311377 0.88770777
0.60748035 -0.96128756 -0.98342663 1.0032047 0.3317627 0.57001764 -0.88381845 0.16268212
0.24706161 0.52209145 1.3365875 -0.17358576 1.271088 -0.57998264 -0.45564464 -0.20349437
1.5883636 0.30946952 0.18626806 0.8342464 -0.720919 -0.5015839 0.28032753 1.3167392
-0.7946948 1.2559333 -0.40493846 -1.002377 0.49474844 0.43594643 0.7420581 -0.12802863
-0.78480035 0.43944415 0.3898987 0.28313816 0.92709154 -0.4982412 -0.10365733 -0.83778304
-0.46819365 -0.8948863 0.042080343 0.79432833 0.75083894 1.0885938 0.5978693 -0.09074398
00000000: de4c 17be 46b9 a6be c116 73be 36f9 42be
00000010: 078a 0d3e 0fbe 743d f66b 05be 7efa a33d
00000020: 7828 0dbe 108e cabe aa44 2abf 417c 92be
00000030: 2730 183e 35fc 1abf 852f b73f d140 633f
00000040: d583 1b3f f116 76bf d9c1 7bbf 0369 803f
00000050: cddc a93e adec 113f ed41 62bf 2496 263e
00000060: b8fd 7c3e c9a7 053f 4d15 ab3f 77c0 31be
00000070: 03b3 a23f be79 14bf 414a e9be d460 50be
00000080: 804f cb3f ca72 9e3e 0ebd 3e3e 2c91 553f
00000090: 268e 38bf cd67 00bf 1787 8f3e e98a a83f
000000a0: 1e71 4bbf 6cc2 a03f 1854 cfbe e44d 80bf
000000b0: ab4f fd3e 5f34 df3e 85f7 3d3f f019 03be
000000c0: ade8 48bf d3fe e03e cda0 c73e 7cf7 903e
000000d0: df55 6d3f 7819 ffbe 4b4a d4bd f378 56bf
000000e0: 14b7 efbe 4517 65bf 705c 2c3d 1a59 4b3f
000000f0: fb36 403f 0b57 8b3f f60d 193f fbd7 b9bd

l2.bias f4 [8]
-0.33560413 0.32735196 0.36446613 0.44247314 0.7951793 0.50550187 0.00039816627 0.066634804
00000000: 4ed4 abbe ad9a a73e 4e9b ba3e d78b e23e
00000010: df90 4b3f 9268 013f f9c0 d039 d477 883d

l3.weight f4 [7, 8]
0.2026381 -0.662124 -1.0233226 -0.9793545 -0.8488656 0.7453266 -0.38807985 0.2308254
0.14831683 -0.411033 -0.762517 0.56587136 -0.8110064 0.21679589 0.8052945 -1.259701
0.3017026 -0.72560734 0.93724513 -1.4989058 0.6530172 -0.86237204 -0.86693233 -0.097496554
-0.076636076 -0.7813218 -1.0241381 1.0730046 0.5029014 -0.82833576 -0.97389925 -1.1693687
0.07789708 -0.47850057 -1.4554448 0.38972598 -0.908187 -0.8472177 0.35642993 0.74344575
-0.30436796 0.6418279 0.5709362 -0.3867832 -0.2686599 -0.57543373 0.029047322 0.5736598
-0.122461915 0.7871349 -0.9782504 -1.0782603 0.7281256 -0.53953516 -0.21139975 -0.700873
00000000: 5d80 4f3e f580 29bf 3cfc 82bf fab6 7abf
00000010: 424f 59bf b9cd 3e3f 67b2 c6be 7e5d 6c3e
00000020: 5ee0 173e eb72 d2be 5034 43bf f2dc 103f
00000030: 1e9e 4fbf beff 5d3e c827 4e3f e23d a1bf
00000040: c378 9a3e 67c1 39bf 4cef 6f3f 25dc bfbf
00000050: 232c 273f 6ac4 5cbf 47ef 5dbf 46ac c7bd
00000060: 60f3 9cbd b504 48bf f516 83bf 3758 893f
00000070: 25be 003f d00d 54bf 7651 79bf e0ad 95bf
00000080: 8188 9f3d 07fe f4be 044c babf 2a8a c73e
00000090: f17e 68bf 42e3 58bf fc7d b63e 7652 3e3f
000000a0: 1ed6 9bbe d54e 243f e028 123f 7308 c6be
000000b0: ca8d 89be a04f 13bf a6f4 ed3c 5edb 123f
000000c0: 50cd fabd ac81 493f 9e6e 7abf 6f04 8abf
000000d0: 7066 3a3f fa1e 0abf 2d79 58be 6a6c 33bf

l3.bias f4 [7]
0.26670298 -0.064544864 -0.10304904 0.3036307 -0.022530148 -0.24938917 -0.051389087
00000000: 4b8d 883e 1930 84bd 600b d3bd 7c75 9b3e
00000010: 2591 b8bc e05f 7fbe 5d7d 52bd
